models/VAR_27000/model_1.pt (torch_old, 466454 bytes, 13 tensors)

lstm.weight_ih_l0 f4 [400, 30]
000000 22 0e fe be 4a 3f 7a be 5b f0 51 be ef 1c f3 be
       -0.49620157 -0.24438205 -0.20501845 -0.47483012
000010 0a 9f bf be db df 39 be cf 88 6a be 3c 27 7a 3e
       -0.37426025 -0.181518 -0.22903751 0.24429029
000020 fa 5d 46 3e 4b 62 b8 bd ba cd ec bd c1 19 50 be
       0.19371787 -0.09003123 -0.11562677 -0.20322324
000030 db a3 1c be 22 1a 69 be da d1 a4 be 78 38 93 be
       -0.15296881 -0.22763875 -0.32191354 -0.2875402
000040 46 6b 11 bd a9 ae 74 be 27 e0 7b 3e 34 58 37 3e
       -0.035502695 -0.23894753 0.24597226 0.1790474
000050 04 15 01 be a6 96 4b 3e f8 e5 9a 3e dd 60 c0 3e
       -0.12605673 0.19881687 0.30253577 0.375739
000060 a4 db c8 be 9e 4f 77 be 4c 0f 5b bd 0a 72 7a 3d
       -0.39230072 -0.24151465 -0.053481385 0.061143912
000070 2d 53 ea bb 13 b9 3c 3e 91 db 41 bd 73 49 5f bb
       -0.0071510286 0.18429975 -0.047328535 -0.0034070879
000080 6c e6 02 3f 5a da 92 3d 63 ea 3f 3e a6 af 1d be
       0.51132846 0.071705535 0.18741755 -0.15399036
000090 43 06 25 be 53 4f f8 be 7f 26 26 bf ea f7 2e 3e
       -0.1611567 -0.4849802 -0.6490249 0.17086759
0000a0 24 93 35 bf ff bd 06 bf 9f 14 cc 3e 53 cb 7b 3e
       -0.70927644 -0.5263366 0.39859483 0.24589281
0000b0 a9 97 6d be 36 0e 3d bf e7 7f ef 3e 9e 1d 42 3f
       -0.23202385 -0.7384981 0.4677727 0.7582644
0000c0 3b da ca 3e 73 81 a2 3e 8a a1 5a bd 0b a5 0a 3f
       0.39619622 0.31739387 -0.053376712 0.54158086
0000d0 c0 07 05 3f 23 b6 4f be 4a 21 1b be 34 0e 34 3f
       0.5196495 -0.20284323 -0.15149418 0.7033417
0000e0 66 de ec be ee 9b 36 3d 3d 75 f2 be 95 6c 61 3f
       -0.46263427 0.0445823 -0.4735507 0.8805631
0000f0 e5 14 58 3d f7 91 38 be 0d a7 44 bf d1 22 13 bf
       0.0527543 -0.18024431 -0.768174 -0.57475
000100 67 88 86 bf 42 df b4 be 92 ed d0 be e8 33 b3 3e
       -1.0510377 -0.35326582 -0.40806252 0.3500054
000110 eb 3d 91 3e 57 e1 f5 3b 15 43 ab 3b c5 bc 1a 3f
       0.28367552 0.0075036692 0.0052265027 0.6044429
000120 b5 d5 29 3e c7 55 13 bf b1 19 82 bd 3c 69 b1 3e
       0.16585429 -0.5755276 -0.063525565 0.346506
000130 1c 1d eb be 71 ff 3f bf 1a 16 92 3c 54 a3 24 bf
       -0.45920646 -0.7499915 0.017832804 -0.6431172
000140 41 fb 25 3e 64 78 a4 3e ff de 48 3b 41 25 80 be
       0.16209127 0.321231 0.0030650494 -0.25028422
000150 34 1a 7a bf 42 d1 9c 3d 2d 64 03 3e 00 9d 7c be
       -0.9769623 0.076571 0.12831183 -0.24669266
000160 97 8b a5 3e c6 c9 06 3d f8 aa 5d be 41 68 2e bf
       0.3233306 0.03290727 -0.2164725 -0.6812783
000170 d5 d9 dc 3d 12 c9 02 bf 18 90 47 bf 0f 6d c0 be
       0.10783736 -0.5108806 -0.77954245 -0.37583205
000180 b1 22 0a 3e e2 f9 2d 3e c9 7b 21 bf 3f 28 35 3e
       0.13489796 0.16989854 -0.63079506 0.17691134
000190 e5 00 11 3e a7 c3 22 3e 61 9c 4b bd 47 7e b0 3e
       0.14160497 0.15894948 -0.04970968 0.34471342
0001a0 39 c1 8a bd 4b 5e fc 3d c8 b7 bf 3e d7 9e 49 3f
       -0.067751355 0.123226725 0.374449 0.78757995
0001b0 6c 50 30 3f 09 5a 12 3e 07 16 98 3e 8a c2 14 bf
       0.68872714 0.14292158 0.29704306 -0.58109343
0001c0 b4 68 d0 3e f1 e5 32 be b7 df 1c 3e c0 73 32 bf
       0.40704882 -0.17470528 0.15319715 -0.6970787
0001d0 fd 58 c0 3d be 81 68 3e c9 e9 6c be 6a 65 8d be
       0.09391973 0.22705743 -0.23136057 -0.27616435
0001e0 e4 0b a8 3e 11 5e dc be cc 4e 86 bf 49 29 02 bf
       0.32821572 -0.43040517 -1.0492797 -0.50844246
0001f0 36 8b eb 3d 19 b3 8e bf bc e4 08 3f f7 87 08 bf
       0.11501162 -1.1148406 0.5347402 -0.53332466
000200 95 45 ac bf 15 23 0a be da 9b 05 3f 7b 33 3d be
       -1.3458735 -0.13489945 0.52190936 -0.1847667
000210 f1 f2 61 bf d5 53 8e bf e2 f4 08 3c 0b 46 d7 3d
       -0.88261324 -1.1119334 0.008359166 0.105114065
000220 ba fc f4 3e 09 44 f4 be 42 09 63 3e 58 3d 1f 3e
       0.47849065 -0.47708157 0.221715 0.15550745
000230 8c 91 26 bf 43 82 c4 be 7d ca fd bd 07 14 0f be
       -0.65065837 -0.38380632 -0.12392137 -0.13972484
000240 37 a8 00 be af 78 38 3e f8 73 ed bd fe 59 0b 3e
       -0.12564169 0.18014787 -0.11594385 0.13608548
000250 f0 96 70 3e e3 ce fc bc 9f 10 04 be 48 94 a7 be
       0.23495078 -0.03086037 -0.12896965 -0.32730317
000260 59 a2 fa be 5a c4 32 3e ae 99 cf bc 5f 34 47 3c
       -0.48951986 0.17457715 -0.025341835 0.012158482
000270 9a 08 ff 3d 98 1e 26 bf 08 14 59 bf 03 41 81 3b
       0.124528125 -0.6489043 -0.8479619 0.0039445176
000280 01 9b c0 3d 75 a2 36 3e 46 1d 57 be d5 ae 09 bf
       0.09404565 0.1783541 -0.2100726 -0.537824
000290 84 19 5a 3f cd c0 73 be 89 93 af be e1 51 a4 be
       0.85195184 -0.23804016 -0.34292248 -0.3209372
0002a0 b7 6c 8c bf 2f fe 4b bf 3f 15 f5 3e 37 cb ed be
       -1.0970677 -0.7968473 0.47867772 -0.46444103
0002b0 2c 9e c2 3e 31 dd f6 3d 3e 7d 20 3f 03 05 69 bd
       0.380113 0.12053908 0.62691104 -0.056889545
0002c0 d8 f2 3f be cd 80 f3 bd 08 7d ba be 7d f4 b4 3e
       -0.18744981 -0.11889801 -0.36423516 0.3534278
0002d0 d3 5e 94 3d 62 12 65 bc 7f d9 21 bf 1f ee a3 be
       0.07244649 -0.013981434 -0.632225 -0.3201761
0002e0 ac 8a 07 bf d2 79 7d 3d 7b b9 19 3e da 4a 07 3e
       -0.5294597 0.061883755 0.15012161 0.13212147
0002f0 f1 d0 1c bf 73 55 16 3c 2c 43 28 3d 31 6d 80 3c
       -0.6125632 0.009175646 0.041079685 0.015677067
000300 0c fd 80 3e 68 24 d8 3e 22 7a 94 bd b2 1e 83 3c
       0.2519306 0.42215276 -0.072498575 0.016005848
000310 73 4d 95 3e a1 1e 99 3e be 87 d7 be aa eb db bd
       0.29160652 0.2990618 -0.4209575 -0.10738309
000320 cc ce f8 3e 4f 4c db 3b 41 c7 d5 3e b8 59 3d 3f
       0.48595273 0.0066924463 0.4175358 0.73965025
000330 18 30 7b 3f a3 15 99 3e dd 7d 2a 3f 08 b3 8c bd
       0.9812026 0.2989932 0.665983 -0.06870085
000340 63 32 5a be 78 73 18 3d b3 64 ca bd cf f7 e7 3e
       -0.21308284 0.037219495 -0.09882488 0.4530625
000350 8a 27 33 3f 47 2d 11 3f f9 e3 df 3d ea 4e b0 3e
       0.69982207 0.5670971 0.10932154 0.34435207
000360 dd 83 88 be fc ad 40 3e 76 cd a9 be d6 09 4d be
       -0.26663104 0.1881637 -0.33164567 -0.20023283
000370 6d 58 8c 3e 8d 44 08 bf 91 47 90 3e 7a 62 ca 3d
       0.27411214 -0.532296 0.281796 0.09882064
000380 b5 b0 65 3f f7 64 96 bb a8 62 12 3f eb 50 28 3f
       0.8972276 -0.0045896727 0.5718179 0.6574847
000390 4e cc 06 3f 67 f3 f2 be 5a 9d 5d bf 60 50 fc bd
       0.52655494 -0.47451326 -0.86568224 -0.12320018
0003a0 59 d4 18 bf ed 64 3e 3f 48 e9 0a 3e ab cb e9 3d
       -0.59699017 0.7437275 0.13565552 0.114158
0003b0 2c ac 93 be 2a eb 27 3e 43 74 a6 be c7 e7 c7 3d
       -0.28842294 0.16398302 -0.32510576 0.09761005
0003c0 e6 46 25 3e d9 1a 46 bf 66 48 78 be 24 33 6a 3d
       0.16140327 -0.77384716 -0.24246368 0.057177678
0003d0 b4 99 51 bf 88 74 3e 3f 0b b3 43 bf 2c c9 1d bf
       -0.8187516 0.7439656 -0.7644507 -0.6163509
0003e0 58 74 1d bf 8a 83 b7 bf 54 d6 ca be c9 15 f1 be
       -0.6150565 -1.4337018 -0.39616644 -0.47086933
0003f0 1d 53 93 3e 15 f1 43 bf 34 2d 07 3f c0 c5 7b 3f
       0.28774348 -0.76539737 0.5280335 0.9834862

lstm.weight_hh_l0 f4 [400, 100]
000000 ea 59 1f 3e 87 c4 84 bd 9b 9c f6 3d c3 47 0a be
       0.15561643 -0.06482797 0.12041589 -0.13503937
000010 2f bd 7a be 5e 69 79 3f 5c 4b d4 bd f1 ba 3e 3d
       -0.2448623 0.974264 -0.10365936 0.046565
000020 51 31 81 bd af 76 e7 bd 92 fc 15 3f ee 0f cf 3e
       -0.063082345 -0.11301934 0.58588517 0.4044184
000030 3b b1 e6 bd 27 74 58 3d 5e ca 4f bd 26 8a b7 be
       -0.11264273 0.052845147 -0.0507301 -0.35847586
000040 29 b5 3f 3e 3d 53 ff bd a8 60 de be 27 77 4e 3e
       0.18721451 -0.12467048 -0.43433118 0.2016264
000050 6e 71 0d bd 92 6a 98 be 6e c0 fc bd 62 18 13 bd
       -0.034532003 -0.29768807 -0.123413906 -0.035911925
000060 6c 0c aa 3e 36 cf ab be de bb 73 be 8d be 69 bd
       0.33212602 -0.33556527 -0.23802134 -0.05706649
000070 78 15 a4 3e 5f 9d ad bd 37 8b e2 bd 9c 88 6f be
       0.3204763 -0.08477282 -0.110617094 -0.23391956
000080 87 96 33 bd 84 17 10 be ed 95 86 3e b1 92 04 be
       -0.043844726 -0.1407147 0.2628626 -0.12946583
000090 ed c5 84 be e2 a5 f9 3e 64 cc d2 bd dc b3 a5 be
       -0.25932255 0.4875937 -0.10292891 -0.32363784
0000a0 24 80 73 3e 1f 6c e2 be 26 3e 37 3d de 6a 16 be
       0.2377935 -0.44223115 0.044737004 -0.14689204
0000b0 8e 6d a7 bd e6 2a 11 be d5 63 4b 3d 25 5d 4d 3d
       -0.08175193 -0.1417652 0.049655754 0.050137658
0000c0 56 96 9a be 21 76 4c bb d9 2d 46 bd 75 dc 92 be
       -0.30192822 -0.003119834 -0.048383567 -0.2868382
0000d0 e8 33 ba 3e 6d 18 9f bd d6 84 e2 3e 6b d1 d0 bd
       0.36367726 -0.07768331 0.4424197 -0.10196193
0000e0 b1 e4 52 bd d2 4e f8 3e e0 ac 95 be fa 08 90 be
       -0.05148763 0.48497635 -0.29233456 -0.2813185
0000f0 b3 e0 39 3d c5 56 b7 3e 34 ec 33 bd 7c e4 f4 3e
       0.045380305 0.35808387 -0.043926433 0.4783057
000100 a8 c0 77 3c 53 f5 f6 bd d9 0b 79 be 77 b9 08 bf
       0.015121616 -0.12058511 -0.24320926 -0.53407997
000110 15 63 db 3e c4 bd 2f be 56 0c ab 3e fc 3f 64 3e
       0.4284903 -0.17162234 0.3340785 0.22290033
000120 39 8d a7 bd de 2f b5 be 26 f4 f9 bd ab d7 0b be
       -0.08181233 -0.35388082 -0.12204771 -0.1365649
000130 f1 cb b8 bc 88 c4 13 be 23 0c 4f 3c 0f 9a b8 3d
       -0.022558184 -0.1443044 0.012637171 0.09013759
000140 26 6b 02 be 5e 50 ff 3e 4c 56 6b 3d 9c 2b 27 3e
       -0.12736186 0.49866003 0.057455346 0.1632523
000150 f2 a8 11 bf 2b b3 58 3d 2f b5 1a 3e 0e 8e 8f 3e
       -0.56898415 0.052905243 0.15108179 0.28038067
000160 51 b3 a2 bc d7 db 09 3e 30 b2 9d 3d ea 85 de 3e
       -0.019860895 0.13462768 0.07700002 0.43461543
000170 f2 b3 69 3e 0f 8c b0 3e b9 da d7 3e ab 34 aa 3e
       0.2282255 0.34481856 0.4215906 0.33243307
000180 a9 f8 b9 be 2f dd c7 3e 35 b4 ae 3c 74 09 83 bd
       -0.36322525 0.39035937 0.021326164 -0.063982874
000190 2e 7b cb bd f5 41 86 3d 42 70 6b 3d d1 e4 8b bd
       -0.09935604 0.06555549 0.057480104 -0.06830753
0001a0 f6 3a d8 be ad b0 f1 be f5 4d 70 be 9d 9a 76 3d
       -0.42232484 -0.47205105 -0.23467238 0.060206044
0001b0 85 48 0a bf e9 8f 12 3f 19 88 d7 bd 97 14 3e bf
       -0.54016906 0.5725084 -0.105240054 -0.7425017
0001c0 54 48 2c be 5d f0 f1 3d b8 d0 b6 3e be ee 0c be
       -0.16824466 0.11813424 0.35706115 -0.13762948
0001d0 d0 7c 34 be 50 27 57 bf 22 4a c7 3b 00 d8 ed bb
       -0.17625737 -0.8404436 0.0060818354 -0.007258415
0001e0 10 fb 6b be 38 55 0b 3f 98 79 a7 3d 09 02 34 bf
       -0.23044991 0.5442691 0.08177489 -0.70315605
0001f0 ad 50 bc 3e b7 4e c1 3e c5 a7 27 be c9 8f 27 be
       0.367803 0.37755367 -0.16372593 -0.16363443
000200 a0 a4 0c 3e 5c 8c d3 be cf 97 e6 be 16 0d 80 3e
       0.13734674 -0.41318023 -0.45037696 0.25009984
000210 e6 90 68 3e 5d ff c2 bc 5f dc 79 bd a7 02 25 3e
       0.22711524 -0.023803407 -0.061001178 0.16114293
000220 34 61 89 be 39 e5 e0 be e2 9e c9 3d 81 d0 13 3e
       -0.26831973 -0.43924883 0.098447576 0.14435007
000230 97 c6 8c 3c 92 84 93 3d 8e 8e 82 bc e4 e2 18 be
       0.017184539 0.0720302 -0.015937116 -0.14930302
000240 e0 13 ff be ea bf 2b 3e 0d ff 8b 3d 61 08 6d bf
       -0.4981985 0.16772428 0.068357565 -0.9259091
000250 f6 84 56 bf 78 61 ce 3c 69 f2 96 be 5c e8 28 3f
       -0.8379663 0.025192961 -0.2948182 0.6597955
000260 03 e9 5e 3d 85 b4 26 be 48 f0 8a bd 58 05 5e 3e
       0.054421436 -0.162798 -0.06784111 0.21681726
000270 9f 93 54 3e ed a8 2b be dc 60 a1 bd 48 8d dc 3e
       0.20759438 -0.16763659 -0.078798026 0.4307654
000280 9f be 84 be 65 89 4a bd 26 e5 2a be 48 88 e7 3e
       -0.25926682 -0.049447436 -0.16688976 0.45221162
000290 f1 d4 e1 3d fc 69 81 be 26 dc fd 3e 7c d2 90 be
       0.110269435 -0.25276172 0.49582022 -0.28285587
0002a0 91 84 83 be 26 44 28 3e 97 41 a5 3e c6 e7 00 bf
       -0.25687078 0.16432247 0.32276604 -0.5035366
0002b0 11 87 89 be a6 89 80 be 70 b9 96 be 08 62 20 be
       -0.2686086 -0.25105017 -0.29438353 -0.15662396
0002c0 c3 c9 3b 3f 69 68 32 be ea 4b 8c be ed b1 6f 3e
       0.7335474 -0.17422642 -0.27401668 0.23407717
0002d0 7f ac 66 3e 39 b1 08 bf 39 91 8d be 02 45 48 3e
       0.2252674 -0.5339542 -0.2764986 0.19557574
0002e0 ac 46 5a 3f 38 78 a3 3e e7 17 22 3d 8e 44 3a bd
       0.85264087 0.31927657 0.039573576 -0.045475535
0002f0 c7 7d 39 3f f8 41 d2 3e 91 bb 24 be 73 86 98 3e
       0.72457546 0.41065955 -0.16087176 0.29790077
000300 70 8f e0 be 7c ee 92 be 68 d8 03 3e fb 88 da bd
       -0.43859434 -0.28697574 0.12875521 -0.10670658
000310 e9 60 3e 3f f4 73 71 be 95 e5 c7 be 16 e6 96 3d
       0.74366623 -0.23579389 -0.39042345 0.07368104
000320 78 93 b7 bd 1b 53 87 3e 1a c5 b5 bd 23 b9 0b bf
       -0.08963674 0.26430592 -0.08875485 -0.5457937
000330 5b 97 9b 3e ec 53 ae 3e 39 78 65 bc b0 f9 02 bf
       0.30388913 0.34048402 -0.014005714 -0.5116224
000340 1a 63 04 3f 38 a0 67 bf 4a ac f7 3e d2 fd db 3e
       0.51713717 -0.9047885 0.48373634 0.42967087
000350 ff 17 59 bf cb 20 6c 3e 45 bf 62 be b5 56 c6 3d
       -0.8480224 0.23059385 -0.22143276 0.09684507
000360 b7 77 d0 be 61 9d a7 3e db d7 c3 3c fd 45 f2 3d
       -0.40716335 0.32737258 0.023906639 0.118297555
000370 de a5 1a be 25 25 a0 3e cb 7b b5 3d 81 b1 0d 3e
       -0.15102336 0.3127834 0.08861502 0.13837244
000380 fe 63 f1 3e 0b 50 19 be 78 ea 93 be cd 51 e2 3e
       0.471466 -0.1497194 -0.28889823 0.44203034
000390 ae 1b 72 bd 3c 2b 7f 3e f8 56 b3 bd 34 05 8d be
       -0.05910843 0.24918836 -0.08756822 -0.27543032
0003a0 ed 60 04 bf 04 60 35 be 42 57 1e 3e 89 9f 81 be
       -0.51710397 -0.17712408 0.15462974 -0.25317028
0003b0 21 ed 51 bd 49 3a 61 bd ce 26 89 be c0 2f 93 bd
       -0.051251534 -0.054987226 -0.26787418 -0.07186842
0003c0 19 1e 01 be a7 53 c3 3d 80 01 b6 bd d3 a5 38 3e
       -0.12609138 0.0953744 -0.08887005 0.18032007
0003d0 07 38 55 3e ca bc 29 bd 55 11 83 be 36 c1 41 3e
       0.20822154 -0.04143981 -0.2559916 0.1892136
0003e0 3f 4c 78 be 67 84 ef bc fe 0d 18 3f 09 a7 80 be
       -0.24247836 -0.029237939 0.5939635 -0.25127438
0003f0 bd b2 53 bc a4 7e 00 3e 5d af 1e 3f b7 71 16 3f
       -0.0129210325 0.1254831 0.61986333 0.58767265

lstm.bias_ih_l0 f4 [400]
000000 44 0e 7a 3c 08 6e 8c be 47 10 e7 3d aa 8d b1 3d
       0.01526219 -0.27427697 0.112824015 0.086695984
000010 2e 1c fa bd 48 ea 66 be f3 d8 ba bd 00 e1 26 3f
       -0.12212406 -0.22550309 -0.09123411 0.6518707
000020 58 8c e2 bd 81 96 e8 3e 4e 03 5c bd 73 69 02 be
       -0.11061925 0.45427325 -0.05371409 -0.12735538
000030 d5 3b 2f 3f 7a 6a 11 be 03 47 21 be 96 66 40 bd
       0.6845067 -0.14200774 -0.15749745 -0.046972834
000040 d7 ca f2 bd aa 84 29 3f 01 cb 4b 3d 4c 9c 9c 3e
       -0.11855095 0.66218054 0.049754146 0.30587995
000050 69 0b a9 bd f0 4a 1b 3f da 00 e2 bd cf 22 57 bd
       -0.082541294 0.6066122 -0.11035319 -0.05252343
000060 46 8b 9a 3e 17 0d ee bc 51 1d 79 be 01 28 4d be
       0.30184382 -0.029058976 -0.2432759 -0.20034792
000070 8e e2 ff 3b dd 17 42 3d a4 4e aa 3d dc 13 3e be
       0.00780899 0.04738604 0.08315781 -0.18562263
000080 88 09 0b be f4 4d 07 3f b7 ae fb bd f5 f1 69 3f
       -0.13577855 0.5285332 -0.122891836 0.9138482
000090 dd 52 b6 3e 2d 0d 58 bd 0c ea 5c be f0 09 71 be
       0.35610095 -0.05274694 -0.21573657 -0.23538947
0000a0 58 32 b7 bd 10 a0 47 bd 76 19 30 bc 02 81 39 be
       -0.08945149 -0.048736632 -0.010748258 -0.18115619
0000b0 ac 06 88 be 6c 4a 72 bd 25 c7 8f bd 00 f1 b5 3d
       -0.2656759 -0.059153005 -0.07020406 0.08883858
0000c0 06 a2 5c be 38 f9 49 3e b5 87 1b 3f 92 17 5f 3e
       -0.21546182 0.19723976 0.6075395 0.21786335
0000d0 17 95 fc bc 94 02 5e bd 4e cf 8b bd 6c ab 81 be
       -0.03083281 -0.054201677 -0.068266496 -0.25326097
0000e0 ea a6 cb 3e 47 92 2f be 7f ac 6d be 7f da 83 bd
       0.39775783 -0.17145644 -0.23210333 -0.06438159
0000f0 ab e8 d1 bd 38 e6 76 3d d1 24 94 be 68 96 0d bd
       -0.10249456 0.060278147 -0.2893434 -0.034567267
000100 b8 85 95 be 22 38 60 be 4c df 16 bd 44 5f 92 be
       -0.29203582 -0.21896413 -0.036834046 -0.28588307
000110 24 0d 13 bd f0 ac bb 3b 1c 37 96 bd e2 de 82 be
       -0.035901204 0.005727403 -0.0733473 -0.2556067
000120 0b 07 b0 bd ef 35 ef bd fc 8d 5b be d1 95 a8 bd
       -0.08595093 -0.11680209 -0.21440881 -0.082317
000130 3c a7 37 3f 8b d7 de bd 6e cb 63 be f3 41 3e be
       0.71739554 -0.10880955 -0.22245571 -0.18579845
000140 12 c0 b7 3e b4 ad e1 bd 19 93 44 be 9f 28 94 3c
       0.35888726 -0.11019459 -0.19196738 0.018085776
000150 95 35 84 bd 97 f8 cc 3e b8 47 0e be 45 13 b0 3d
       -0.064555325 0.4003341 -0.13894546 0.08597425
000160 97 3a 73 3f 91 15 40 3d 23 f4 d3 bd 39 e3 16 bc
       0.95011276 0.046895567 -0.103493 -0.009209448
000170 03 ef 9f 3e 1c 6b e4 bd 5b f5 6f be f3 76 25 be
       0.3123704 -0.11153242 -0.2343344 -0.16158657
000180 9a d0 31 be dd 7e 17 be 86 56 71 be 9f 9a ff 3b
       -0.17364731 -0.14794488 -0.23568162 0.0078004147
000190 8c 9d 96 3c a5 c2 cf bd 6f ef 4c be 33 cb cc bd
       0.018385671 -0.101445474 -0.20013212 -0.09999695
0001a0 4d 34 af bc 19 38 3f bd 42 13 d6 3c f6 6b c3 be
       -0.021387244 -0.04668436 0.02613223 -0.38168305
0001b0 a9 59 8a 3d 0c 84 0f be 9c c8 e5 3d 81 0e 4f bd
       0.067553826 -0.14015216 0.11219904 -0.05055094
0001c0 90 e8 57 be 6d 84 a7 bd 5f 7d 86 3d 94 13 d3 bd
       -0.2108481 -0.08179555 0.065668814 -0.103064686
0001d0 5f 7b 8a bd dc d7 55 be 9e 8d ae bd ad df a8 bd
       -0.067618124 -0.20883125 -0.08523105 -0.08245788
0001e0 d7 a2 1c be b2 b0 9a be 9b 4a 59 bd c5 12 fc bd
       -0.15296493 -0.30212933 -0.053049665 -0.123082675
0001f0 ba fe 53 be dc 0b 9f bd ab cc 89 bd 35 34 ef bd
       -0.20702639 -0.07765934 -0.067284904 -0.116798796
000200 c0 66 da bd c6 5f b6 bc c4 9f 35 be d4 c9 7c 3c
       -0.10664129 -0.022262465 -0.17736727 0.015428979
000210 62 ca ca 3c aa ca a7 be 99 9d 3d bd 3e 6d c0 be
       0.024754707 -0.32771808 -0.046292875 -0.37583345
000220 78 b1 48 be 8e 00 d6 bd 0d 9f 04 be cb 29 08 bd
       -0.19598949 -0.104493245 -0.12951298 -0.033242982
000230 35 4b 68 3c 3c cc fb bd 3c 6d 61 3d 63 3d 1c be
       0.014178087 -0.12294814 0.055035815 -0.15257792
000240 9c 84 34 be 3b 37 90 bc c8 cd c5 3c 23 f6 24 be
       -0.17628711 -0.017604461 0.024145976 -0.16109519
000250 79 ac 86 bd df c0 54 be 48 0b 27 be b0 a6 95 be
       -0.06575865 -0.207767 -0.16312897 -0.29228735
000260 5b 40 8b 3c 92 6b 8e bd 6f 09 26 bd 17 ad 11 be
       0.01699846 -0.06954111 -0.04053634 -0.14226185
000270 eb 6a 42 be 65 01 a4 bd 56 2e 62 3b 80 fc 92 bd
       -0.18986098 -0.080080785 0.0034512482 -0.07177067
000280 0c 35 95 bd db 4e ce 3d 83 c9 b1 bd ba a8 ab 3d
       -0.072855085 0.10073634 -0.086810134 0.083817914
000290 fe 82 28 3d fc 75 41 3d 92 97 0c bd 08 c9 e1 3d
       0.04114055 0.04723166 -0.034324236 0.11024672
0002a0 91 92 64 bd 13 14 13 be 77 7c 44 be 27 4f 2d bd
       -0.05580384 -0.14363126 -0.19188105 -0.042311814
0002b0 20 22 3e be 97 33 5d bd 41 ac d7 3d 10 06 86 bd
       -0.18567705 -0.054004278 0.10530902 -0.06544125
0002c0 40 1d 38 be e1 59 ee 3d ba 85 0b be 1a 08 49 3d
       -0.17979908 0.11638237 -0.13625231 0.049079992
0002d0 d5 00 9c be 08 a7 1d bd a3 bd 86 bc af 83 14 bd
       -0.30469385 -0.03848937 -0.016447848 -0.036258396
0002e0 dc e6 86 bd be 89 55 be 23 ce 2e bd 8d 03 81 3d
       -0.06587002 -0.20853326 -0.042677056 0.062995054
0002f0 45 88 b2 be 6c bc de bd d8 d4 a9 3c b9 07 7b be
       -0.3486959 -0.10875782 0.020731375 -0.24514665
000300 1b b3 93 be a5 34 b3 bd a0 57 90 bc e7 b3 a7 3c
       -0.28847584 -0.087502755 -0.017619908 0.020471526
000310 2b a5 73 3c 1a ed 71 bc b2 1b 80 bd c3 65 2e be
       0.014870922 -0.014766002 -0.062552825 -0.17031007
000320 d6 6a 52 3b a3 ce b6 bd d9 e6 11 bd 01 23 df bc
       0.0032107136 -0.089261316 -0.035620544 -0.02723837
000330 9d 07 a0 bc 40 b1 e5 bc a7 01 22 bb 25 57 c1 bc
       -0.01953488 -0.028038621 -0.0024720223 -0.023601124
000340 0e 79 11 bd ff f9 0c bc 01 6b 58 3d 04 64 ff 3c
       -0.035515837 -0.008604526 0.052836422 0.03117562
000350 fb 50 22 3c 4b 5b ba 3b c0 b0 18 bb 6f 40 c4 bd
       0.009907003 0.0056871525 -0.002329871 -0.09582602
000360 e0 09 8b bc 65 40 31 bd f7 4b 4a bd c1 18 97 bd
       -0.016972482 -0.043274302 -0.049388852 -0.07377768
000370 44 b5 59 3c 9f 5a 14 3d 9f 0f 24 3d b8 1e 57 3d
       0.013287846 0.036219236 0.04005396 0.05251953
000380 49 8a 94 bd 4f d7 15 3a 66 39 90 bb 45 62 41 bd
       -0.07252938 0.00057159824 -0.0044013737 -0.047212858
000390 4c 72 20 bd d4 16 9e 3d 29 f6 d4 ba e8 a0 57 3c
       -0.039171502 0.07719198 -0.0016247678 0.013160922
0003a0 f9 44 6d 3d aa 59 22 3c 8f 70 27 3d c5 30 98 bb
       0.057927106 0.009909073 0.04087883 -0.0046444857
0003b0 86 84 63 bc a4 4a 75 bd f2 63 53 3c 34 7d 2a bd
       -0.0138865765 -0.059885636 0.012902247 -0.04162331
0003c0 7c 62 18 bd d3 e6 82 3d 65 26 8a 3d 8f 62 7a 3d
       -0.037203297 0.063916825 0.067456044 0.06112915
0003d0 1c bf 37 3d 0e cd 2b bc 81 18 b4 bc 8e e2 c0 3d
       0.04485999 -0.010485901 -0.02198434 0.09418212
0003e0 09 bf 78 3c 39 b8 ba bc 91 fd cf 3c 69 eb a2 3c
       0.015182265 -0.022792922 0.025389465 0.019887643
0003f0 b3 37 93 bd 98 89 7d bb 70 60 54 3d d9 e3 55 bd
       -0.07188358 -0.0038686749 0.051849782 -0.052219246

lstm.bias_hh_l0 f4 [400]
000000 5b 5d 9c bd 55 8a fe bd d8 f5 78 3e ac a3 e6 3d
       -0.07634994 -0.124287285 0.24312532 0.11261687
000010 df 96 06 bd 28 79 be bd d9 57 18 be d5 99 13 3f
       -0.032858726 -0.093004525 -0.14877261 0.57656604
000020 92 bc c9 bd 5d 24 f9 3e 42 52 0d be 5c 15 95 bd
       -0.0985042 0.48660555 -0.1380091 -0.072794646
000030 a5 a7 38 3f 8d 2e c1 bd be 83 21 bd ba bd 55 bd
       0.72130805 -0.09432707 -0.03943228 -0.05218289
000040 d1 b0 11 bd b0 56 42 3f 77 3d 03 3d 85 26 c1 3e
       -0.035569016 0.75913525 0.03204104 0.377247
000050 f8 92 c2 bb 4f b8 22 3f cd 28 52 bc 95 c1 9e bd
       -0.00593793 0.6356248 -0.0128271105 -0.077517666
000060 bd 35 00 3e f7 41 0a be 54 19 83 bd bb 14 c6 bd
       0.125205 -0.13501726 -0.06401315 -0.09671923
000070 72 46 d6 3c c1 1f 3c 3d 03 0e 03 3d 72 05 79 be
       0.026156638 0.04592872 0.031995784 -0.24318483
000080 2d f4 4e be df a8 15 3f f5 71 1f be 20 a9 69 3f
       -0.20210333 0.584608 -0.15570815 0.9127369
000090 88 0c 9a 3e 32 1a 30 bd 37 97 ac be 96 a7 e6 bd
       0.30087686 -0.04299373 -0.33709118 -0.11262433
0000a0 ac 76 c2 bd 02 c9 14 bb 12 4e 6a 3b 57 fc 8e bd
       -0.09495291 -0.0022702818 0.00357521 -0.06981724
0000b0 b4 9b 77 be 42 f1 24 3c a5 ba 7e be d7 7e ca 3b
       -0.2418049 0.010067286 -0.24875887 0.0061796713
0000c0 ec 89 3f be e6 ba de 3d 53 65 18 3f 1a 9a 83 3e
       -0.18704957 0.10875492 0.5952961 0.25703508
0000d0 01 e9 8f bd fa 1b e2 3c d5 8c a0 bd 58 93 8e be
       -0.07026864 0.02760123 -0.078393616 -0.2784679
0000e0 84 ce d0 3e e6 18 13 be 51 1f 5c be 0e 11 7e be
       0.4078256 -0.14364967 -0.21496321 -0.24811193
0000f0 80 62 14 be 23 85 ae 3d da de 29 be 86 a6 31 bd
       -0.144907 0.085214876 -0.16588917 -0.0433717
000100 6e 73 14 be 29 74 77 be 67 55 6b bb af 29 3d be
       -0.14497158 -0.24165405 -0.0035909058 -0.18472932
000110 6b f4 1f be ff d7 ab bc 88 b7 fa bd 97 ca 89 bd
       -0.15620582 -0.020977018 -0.12242037 -0.06728094
000120 5b 8e d3 bd 22 ee ce bd 5a b9 87 be ea 54 45 be
       -0.103298865 -0.10104014 -0.265086 -0.19270673
000130 f4 eb 22 3f 19 16 70 be 7f f5 42 be 80 04 a2 be
       0.63641286 -0.2344593 -0.19038962 -0.31644058
000140 a9 2d d0 3e af da 9a bd 24 e7 82 be e1 9f ea bd
       0.40659836 -0.07561242 -0.2556697 -0.11456276
000150 2c 21 55 3d 19 18 73 3e f9 5e 8a be 74 cd 99 3d
       0.05203359 0.23739661 -0.27025583 0.0750989
000160 d4 db 4c 3f e2 f8 88 bd 16 53 be bd 62 cd aa bd
       0.8002293 -0.06688096 -0.09293191 -0.08339955
000170 68 e2 d8 3e 85 59 05 3d 9c 91 a5 bd 60 7c 18 be
       0.42360234 0.032556076 -0.080844134 -0.14891195
000180 c8 7a ff bd 89 3f 90 bd 26 a3 e1 bd 34 9e 99 bd
       -0.124745905 -0.07043368 -0.11017446 -0.07500878
000190 3a 89 b3 3d 48 a7 ab bb 9d 1a 0c be 84 2a 00 be
       0.08766408 -0.0052384473 -0.13682027 -0.12516218
0001a0 94 6e 5a bc e5 ce 40 bd 43 4f 6c bd 22 02 c1 be
       -0.013332028 -0.04707231 -0.057692777 -0.3769694
0001b0 e9 93 90 bd 07 1b c1 bd 11 3f 8a 3d c2 ce bb bd
       -0.070594616 -0.09428983 0.0675031 -0.09170295
0001c0 28 a8 80 be 20 d2 33 be 55 1b 8c 3c f6 99 b0 bc
       -0.25128293 -0.17560625 0.017102877 -0.02155779
0001d0 89 0d cb 3d be 5c 60 be 13 30 c8 bd 99 b6 ec bd
       0.09914691 -0.21910378 -0.097747944 -0.11558265
0001e0 fe ab 21 be e5 cf a3 be 8d d7 54 bd e5 05 84 3d
       -0.15788266 -0.31994548 -0.051963378 0.06446437
0001f0 7e 3d 41 be d3 bd cd bd f6 03 0b be 50 f1 dc bc
       -0.18871114 -0.10045972 -0.1357573 -0.026970536
000200 5e 07 1c be 91 97 6b bd ab 2f e0 bd 4f 04 93 bd
       -0.15237185 -0.057517592 -0.10946592 -0.07178556
000210 3f d6 a1 bd a6 4c b7 be 86 ff 23 3d 2c db ad be
       -0.07902192 -0.35800666 0.040038608 -0.33956277
000220 0e 63 2f be 41 00 cb bd 62 21 f9 bd 00 e1 e6 3c
       -0.1712763 -0.09912158 -0.121645704 0.02818346
000230 88 dc ba bd 7b 43 08 be 9b 66 c2 bd d4 3e 23 bb
       -0.09124094 -0.13306992 -0.09492227 -0.0024909275
000240 6d 7c bc bd 76 6b 25 3d 2b 7a a4 bd 0b 8a 94 bd
       -0.0920342 0.040385686 -0.08031114 -0.07252892
000250 b8 a9 d6 bd d1 e1 74 be 3f 03 53 be b4 08 10 be
       -0.1048159 -0.23914267 -0.20606707 -0.1406582
000260 f4 31 62 3d 94 13 d0 3c d4 dc 3c 3d 0e 1b 89 bd
       0.05522342 0.02539996 0.046109036 -0.066946134
000270 b1 48 9d be e2 09 f9 bd 56 73 da bd a2 19 87 3b
       -0.30719522 -0.12160088 -0.1066653 0.0041229287
000280 83 2a 3c bd be 87 af 3c 8a 8a a9 bd 33 5b 78 bd
       -0.04593898 0.021427032 -0.08278377 -0.06063385
000290 6d 6c f2 bc f7 4d 0e bc 14 03 7b 3d 2a ef c7 3d
       -0.029592717 -0.00868558 0.061282232 0.09762414
0002a0 29 9d 25 bd 2a 67 41 be f5 c3 9c bd ac 0b 8f bd
       -0.040433083 -0.1888701 -0.07654563 -0.06984648
0002b0 bc f4 c7 bd 67 92 42 3b 62 d5 7d 3d 73 ee 44 bd
       -0.09763476 0.0029689313 0.061971076 -0.048078965
0002c0 b6 31 78 bd 70 98 23 3e 69 44 10 be 4e c2 07 be
       -0.060594283 0.15976119 -0.14088596 -0.13257715
0002d0 d4 67 97 be 23 1f 12 3c 22 3a 10 be c2 ae 86 3c
       -0.29571402 0.008918556 -0.14084676 0.016440753
0002e0 47 70 b2 bd 1c 50 84 be 06 3e c7 bd 83 25 4d 3e
       -0.087128215 -0.2584237 -0.09728627 0.20033841
0002f0 c8 ec c8 be c6 f4 78 be f0 99 a4 3c 34 ee 09 be
       -0.3924315 -0.24312124 0.020092934 -0.13469774
000300 21 af 8d be c0 93 97 bd c6 19 14 be 57 1e ab 3c
       -0.27672675 -0.07401228 -0.14462957 0.02088849
000310 87 b4 d8 bd 04 9c c1 3d 79 13 15 be 00 09 ee bd
       -0.10581308 0.09453586 -0.1455821 -0.1162281
000320 a4 a1 1b bc 89 13 dc 3d 73 61 bd 3c 48 81 c1 3c
       -0.009498987 0.107459135 0.023117756 0.023621216
000330 e9 93 80 3c e6 e3 aa 3c 41 49 e1 3c 59 59 e6 3c
       0.015695529 0.020860624 0.02750075 0.028118776
000340 13 8c 9b 3d bb 45 8f 3c 1b 16 66 3d 97 ff 62 bd
       0.075950764 0.017489305 0.056173425 -0.05541953
000350 a2 d9 30 bd 7b 74 67 bd 3f 5d a3 3c c5 0b 77 3d
       -0.0431763 -0.05650757 0.019941924 0.06031396
000360 04 50 e4 3d b7 fa 83 3d 97 1a 7f 3d 8e b5 84 3d
       0.11148074 0.064443044 0.062281217 0.06479941
000370 7a 55 b4 bc 50 ae 7d bd 1b 35 db bc 54 e1 71 3d
       -0.022013415 -0.061933815 -0.026758721 0.05905278
000380 bf e3 fb 3c bb e2 61 bb ba 8c 2e bb 8a 98 4f 3d
       0.030748246 -0.0034467417 -0.0026634173 0.050682582
000390 95 d2 78 3c 61 21 f6 bc e5 17 ca 3b 74 0d 26 3b
       0.015186925 -0.030045213 0.006167399 0.0025337609
0003a0 76 33 e2 3a 25 5a 6e bc 27 b0 8c bb 0c 44 a2 3b
       0.0017257768 -0.014547859 -0.00429346 0.0049519595
0003b0 d5 38 6d 3d 05 76 8a 3c 85 23 55 bd 0d a8 c2 3c
       0.057915527 0.01690198 -0.052035827 0.023761773
0003c0 17 72 64 3c 6c 0a 16 bd 41 b2 54 bd 5c 74 44 bc
       0.013943217 -0.036631033 -0.05192781 -0.011990633
0003d0 49 53 72 3c 39 13 8b bc 94 78 b9 bb c5 26 4b bd
       0.014790365 -0.01697694 -0.005660126 -0.04959752
0003e0 14 69 6a bd 31 58 b5 3c 0d 6a 79 bc 2b aa 84 39
       -0.057229117 0.02213678 -0.015223038 0.00025303787
0003f0 1e dd b7 3d 07 7c 3e 3d fe 1e 3a bd 56 14 13 3c
       0.08977722 0.046505 -0.045439713 0.008977016

lstm.weight_ih_l0_reverse f4 [400, 30]
000000 0e 5b 8b 3e 51 42 e5 3e 54 58 f8 3e b7 26 94 3e
       0.27217907 0.44777158 0.4850489 0.28935787
000010 11 d2 8e bc e8 4a 37 bd 9a 62 b2 3e da ef 9f bd
       -0.017434152 -0.04474917 0.34840852 -0.0780942
000020 2a 26 f7 3d fd 82 31 3f 6c 2e 3e 3f 96 76 b5 3e
       0.12067826 0.693405 0.74289584 0.35442036
000030 7b cd fb 3e 92 5d 6d 3e 25 a1 c6 3e f2 55 59 3e
       0.49180207 0.23180225 0.3879482 0.21224192
000040 83 3f ee be 44 51 13 bf 0d 12 e8 bd 89 e0 0a 3f
       -0.4653283 -0.57545877 -0.11331568 0.54248863
000050 8c 51 fa 3e 6b 9b 34 3f 28 da 8d 3e dc 14 0c 3f
       0.4889034 0.7054965 0.27705503 0.5471933
000060 c3 ee 2a 3f 81 d2 c4 3c ea 4a ff 3e 15 eb ee 3e
       0.6677057 0.024026157 0.49861842 0.46663728
000070 d9 b0 19 be f6 07 ae 3d 2c 1d 09 bf ba ba b1 bd
       -0.15008868 0.08497612 -0.5356014 -0.086781934
000080 37 4a 2f 3c 2a 1d 6f 3e af 19 fc 3d 83 cd 8b be
       0.010698847 0.23350969 0.12309586 -0.2730523
000090 f5 8c 46 3d de 59 16 be bf 10 24 3e c2 04 84 3e
       0.04847427 -0.14682719 0.16022013 0.2578488
0000a0 c3 8d 85 be eb 11 d0 3e 96 08 8d be 85 b8 89 be
       -0.26084718 0.4063867 -0.27545613 -0.2689859
0000b0 3a 3a 00 be af d5 10 3e 88 d9 4c bc 4a f9 d8 bd
       -0.12522212 0.14144014 -0.012503035 -0.10594423
0000c0 f2 9b fc 3d cb 42 b7 3e 26 0d 91 3e 3c 04 a1 3d
       0.12334432 0.35793146 0.28330344 0.07862136
0000d0 66 b0 18 3e d5 07 cd 3c 4c 6f 22 bd 31 95 ad bc
       0.1491104 0.025028149 -0.039656922 -0.021189304
0000e0 e0 56 eb 3d 98 e2 90 3e 6e 67 83 be 3f 2b cb bd
       0.114911795 0.28297877 -0.25664848 -0.09920358
0000f0 8a 26 40 be 8c ca 0c be bf c3 c6 3d 8f f8 18 3e
       -0.18764701 -0.1374914 0.09705304 0.14938568
000100 e4 f9 d0 3d 44 50 40 3e 77 db 3a 3e 3a bb 27 bc
       0.10203913 0.18780619 0.18247782 -0.010237509
000110 b9 9f c1 bd 80 cb b9 bd d6 61 d5 3e b3 3f 92 3e
       -0.09454293 -0.09072018 0.41676205 0.28564224
000120 7e c6 92 3d 5e c5 81 bb b8 64 38 3e 0a a0 2c 3e
       0.07166766 -0.0039602956 0.18007171 0.16857925
000130 e8 e1 bf bd 00 1c f8 bd 6d fe 13 bf e5 2a 86 bd
       -0.0936926 -0.121147156 -0.578101 -0.0655115
000140 95 e6 7e 3e 76 35 b4 bd c9 58 50 3e 80 54 6b 3e
       0.24892648 -0.08799259 0.20346369 0.22981453
000150 f3 9b d3 b9 99 09 7e be 9e 9a 21 3e 22 fd 90 39
       -0.00040361247 -0.24808349 0.15781638 0.0002765442
000160 24 e2 fc 3a 92 25 63 be 1e 09 a2 3c c4 6c 2c 3e
       0.0019293469 -0.221823 0.019779738 0.16838366
000170 66 51 94 be cc f4 89 be 18 c7 f3 be 24 dc 43 3e
       -0.28968352 -0.26944578 -0.47612834 0.19126946
000180 01 b3 24 bd 21 41 c2 be b0 7d b2 be ee 2d 0b 3e
       -0.040209774 -0.37940314 -0.34861517 0.1359174
000190 c7 f4 ca 3e 29 95 56 be 86 46 28 3e 57 08 03 3e
       0.39639875 -0.20955338 0.16433153 0.1279615
0001a0 d6 78 cf bd 11 f1 da bd b6 d3 07 bf 10 a5 35 3e
       -0.101304695 -0.10690511 -0.5305742 0.17738748
0001b0 0c 11 1b 3e 8b f9 19 3e 87 94 35 3e 0c 7d 79 be
       0.15143222 0.150366 0.1773244 -0.24364108
0001c0 5d f7 ae be f6 45 d7 be 10 5f e7 3e 57 69 65 bd
       -0.34173098 -0.42045563 0.45189714 -0.056008663
0001d0 4b 95 ac 3c 4f d1 82 be e5 3c 6b 3d 28 f0 ad 3d
       0.021067282 -0.25550315 0.05743112 0.08493072
0001e0 62 d7 f0 3c e9 7f 92 bd 74 0f 2d 3f ee 36 70 3f
       0.029399578 -0.07153303 0.67601705 0.93833816
0001f0 b3 49 25 3f 06 f2 91 3e e0 a2 b6 3c 91 de f4 bd
       0.6456558 0.28504962 0.022294462 -0.11956514
000200 5f e4 59 be 54 cd 59 be eb 26 8e 3d ff b8 ae be
       -0.21278523 -0.21269733 0.06941017 -0.34125516
000210 26 e4 d9 3d f3 f0 42 3e 03 b5 63 3e 1e c5 f7 3d
       0.10639219 0.19037227 0.22237019 0.12098144
000220 66 35 1a be 8f 89 0e bf ae 15 eb be 20 c1 88 bd
       -0.15059432 -0.5567865 -0.45914978 -0.06677461
000230 c8 e5 14 3e cd 42 97 bd 46 f4 0b be 47 21 67 be
       0.1454078 -0.07385788 -0.13667402 -0.22571288
000240 f8 01 1b be 59 0c 61 3e 8c 5d c4 3e 16 59 30 bd
       -0.1513747 0.21977367 0.3835262 -0.04305371
000250 c6 9d 8c be 06 19 6c be e8 9f 9a bd c8 ce 27 be
       -0.27464122 -0.2305642 -0.07550031 -0.16387475
000260 7d db 3b 3e 66 37 83 3e c8 3b 95 3d cb 15 90 bc
       0.18345447 0.25628203 0.07286793 -0.017588517
000270 54 9d 0c be a7 ff d8 bd 7a 27 8f be 6a 67 b0 3d
       -0.13731891 -0.10595637 -0.27959806 0.08613475
000280 22 7e d5 3d ee 8b 9b 3e 0d c8 cb bd 8f 08 40 3c
       0.104244485 0.30380195 -0.09950266 0.0117207905
000290 e0 6d a8 bd 51 ce 9c be 89 b0 a6 be ae 40 8d be
       -0.08224082 -0.30626157 -0.3255656 -0.2758841
0002a0 ba 99 2d be 3b a0 94 be b2 f3 06 bf 42 19 a2 be
       -0.16953173 -0.29028496 -0.527156 -0.31659895
0002b0 ff be a7 3d 78 14 eb bc 4f 15 66 bc 33 e2 99 3e
       0.081907265 -0.028696284 -0.014043166 0.3005539
0002c0 f2 60 cd 3d ca af 1c be 5e 88 bc be 76 82 3c bd
       0.100282565 -0.15301433 -0.3682279 -0.046022855
0002d0 dc 18 ea be 13 26 66 be c4 33 04 3f 68 ae 45 be
       -0.4572209 -0.22475462 0.5164149 -0.19304812
0002e0 61 72 fa 3c 6f e6 9e be 04 d0 56 be 39 d9 bd be
       0.030572118 -0.31035182 -0.20977789 -0.3707979
0002f0 2c cb aa be c7 00 c7 be 94 58 d2 3e de 0f 03 bf
       -0.33358133 -0.3886778 0.41083205 -0.51196086
000300 b0 dd c4 be 62 8c c9 3b 9e 81 52 be 80 d7 4b 3d
       -0.38450384 0.006150768 -0.20557258 0.049766064
000310 66 05 8d 3e 66 6d 22 bd cb 10 fa be c7 61 37 3d
       0.2754318 -0.03965511 -0.48840937 0.044770982
000320 39 e7 81 3e 9d 19 ba bc 7a 22 44 3e 1a c8 59 3e
       0.2537172 -0.022717291 0.19153777 0.21267739
000330 ad 1a be bd 5c e2 f2 bd 84 61 d2 bd 77 c0 ed be
       -0.09282432 -0.11859581 -0.10272506 -0.46435902
000340 ed 93 3a bd f1 06 8b be 82 98 99 3d 5e 94 8a bd
       -0.04555123 -0.27153733 0.07499792 -0.0676658
000350 f9 54 87 3c d0 98 9f bd 1a eb 85 3b 63 6a 8a 3e
       0.01652001 -0.077928185 0.004086864 0.27034292
000360 c2 71 6c bd 40 5b 82 3e 30 0f 08 be 2d ad 0f 3d
       -0.057725675 0.25460243 -0.13287044 0.035077263
000370 c6 fe 22 be 83 9f 5f 3f d4 ee 0a 3e 48 43 c9 be
       -0.15917501 0.8735277 0.13567668 -0.39309144
000380 7e bb 9f be c4 99 8f 3e 57 46 0d 3f 0a bc 46 3e
       -0.31197733 0.28047 0.55185455 0.19407669
000390 07 05 0c bf 33 5b 80 3f 8d 86 06 3d 5e 8d ab 3c
       -0.5469517 1.0027832 0.03284316 0.020941433
0003a0 b3 17 2d 3f bd b0 07 3f cf 22 3c 3f 70 83 7f 3e
       0.6761429 0.53004056 0.73490614 0.24952483
0003b0 16 79 19 3f 29 41 ad 3e 33 9d f4 3e d8 9f 73 bd
       0.5995039 0.33838776 0.47776183 -0.05947861
0003c0 29 d6 0c be 74 27 9e be c8 11 ca 3c c7 b4 1d 3c
       -0.1375357 -0.30889475 0.024666682 0.00962562
0003d0 2a f1 72 be 38 22 15 be dd 77 5d 3d 44 a0 82 3c
       -0.2372481 -0.14563835 0.05406939 0.015945561
0003e0 0e 05 ff be ef e0 7c bd 1e 90 c4 be 19 e0 44 bc
       -0.49808544 -0.06173795 -0.38391203 -0.01201632
0003f0 46 c5 95 be c3 79 80 3e 16 31 83 be d2 a8 00 bf
       -0.2925207 0.25092897 -0.25623387 -0.502576

lstm.weight_hh_l0_reverse f4 [400, 100]
000000 6e 69 ad be 54 aa 56 be de 94 9b 3c 10 b2 72 be
       -0.338695 -0.20963413 0.018991884 -0.23700738
000010 01 dd af bc f6 b3 32 be 0f ee 0c bd 52 0f 78 bc
       -0.021467688 -0.17451462 -0.034406718 -0.015140371
000020 d6 e1 7d 3d 5c 26 03 3e 9f b6 d7 be 07 c8 ef 3d
       0.061982952 0.12807602 -0.42131516 0.11708074
000030 7c c7 83 3c 60 f6 92 3e 1c 00 cf 3e 0f 88 fc bd
       0.016086332 0.28703594 0.4042977 -0.123306386
000040 fa c8 a1 bc 96 76 3c be 41 9f d6 3e df 1a 52 3e
       -0.019749153 -0.18404612 0.41918376 0.20518063
000050 23 dd 7d bd cf c5 77 bd 59 ef 19 3e 00 12 e6 bd
       -0.06197847 -0.06049138 0.1503271 -0.11233902
000060 a9 59 9f 3d 62 cc d4 3c 73 15 d9 bd 5f 0e f2 3d
       0.07780773 0.025976364 -0.10599794 0.11819147
000070 36 a7 df 3d 0c 6b af bc 30 94 be 3d aa e8 a9 3c
       0.10920565 -0.021413349 0.09305608 0.020740826
000080 76 ef 0b 3e f2 e6 c9 3d f7 63 5b bd ef f1 40 3d
       0.13665566 0.098585024 -0.05356213 0.047105726
000090 31 ef 87 3d 98 b3 39 be b1 e2 ce 3d 59 e3 e6 bc
       0.06637419 -0.18134916 0.10101832 -0.02818458
0000a0 43 49 10 bd 53 d5 9c 3d 41 a4 c2 3c 76 ee 61 39
       -0.035226118 0.07657876 0.023759963 0.00021546506
0000b0 d3 7c b4 3e 25 fe 1a 3e 6f 33 03 bd 3c c2 05 be
       0.35251483 0.15136011 -0.032031473 -0.13062376
0000c0 81 9e 28 bd a1 90 91 3d 2a 59 40 bd 43 46 a6 3e
       -0.041166786 0.07107664 -0.046960033 0.3247548
0000d0 db 64 77 3e 64 93 94 be a4 d2 6f be 93 b2 e3 bd
       0.24159567 -0.290187 -0.23420197 -0.11118045
0000e0 30 55 67 be 48 a7 af 3d 27 53 61 3e 4f d6 55 3d
       -0.2259109 0.08576828 0.22004376 0.052206334
0000f0 58 db d4 3d 33 89 1a bd 5b 53 9b bc 5d 3c 1d bd
       0.10393399 -0.0377285 -0.018960645 -0.038387645
000100 30 20 7f be 56 45 8c 3d 63 31 c7 bd 76 66 16 3e
       -0.24914622 0.06849162 -0.09726217 0.14687523
000110 f4 8c c9 3d 51 c1 3c 3e 7d ae ee bc fc 59 e5 3c
       0.09841338 0.1843312 -0.029135937 0.02799701
000120 21 fb de 3c e0 a1 b4 bd 47 d6 15 3d 5e 7b 10 bd
       0.027219357 -0.08819938 0.036581304 -0.035273902
000130 b2 9b 87 3d 11 41 af 3d 6f 73 3e bd 54 26 eb bd
       0.066214934 0.08557332 -0.046496805 -0.1148192
000140 e4 ea 14 3e 25 b4 92 3d 48 ac 4a 3e a3 b4 ab 3d
       0.14542729 0.07163266 0.19792283 0.08384063
000150 c5 74 6c be 9e f4 09 be 4d 4d d7 bd 71 ae 3f 3d
       -0.23091419 -0.1347222 -0.10512791 0.04679722
000160 d6 b6 8f 3e 98 2c 20 be fb 7a 18 3e 47 d5 3b 3e
       0.2806918 -0.15642011 0.14890663 0.18343078
000170 92 1f 7b 3d 59 e2 1d b9 93 e5 0a 3e 32 e6 17 be
       0.061309405 -0.00015057008 0.13564138 -0.14833906
000180 b2 e3 45 be eb 7e 8f bb 57 8d ad 3d cb 90 a7 3d
       -0.1932514 -0.0043791435 0.08474224 0.08181914
000190 51 b2 9b bd 4a 7f 52 3e 24 d6 31 3e 57 0d bb 3e
       -0.076023705 0.2055637 0.17366844 0.36533615
0001a0 7e d0 10 3d cf e6 30 bd 20 1c 88 3e db 46 22 3d
       0.035355084 -0.043188866 0.26583958 0.039618354
0001b0 35 0e 88 be 39 14 9c be fe 66 1b be 6c d5 1e bd
       -0.2657334 -0.3048418 -0.15176007 -0.038777754
0001c0 a0 04 e9 bd 63 32 57 be 8a 2b 5d 3c 62 5a 84 3e
       -0.11377835 -0.21015315 0.01349915 0.25850207
0001d0 8d 13 21 be e6 d1 2d be e4 ec ec bc 72 e3 88 bd
       -0.15730114 -0.16974601 -0.028921552 -0.06684007
0001e0 99 ec 14 3e c3 72 c4 3d 10 53 97 bc 8d 31 7a 3d
       0.1454338 0.095922016 -0.018472224 0.06108241
0001f0 08 1a 78 3b 4e 68 d0 bd 06 6e ba 3e 29 d4 ac 3d
       0.0037857313 -0.101761445 0.36412066 0.08438904
000200 e4 61 d2 3e 29 a0 4b bd 9d df 92 3b 84 64 ca be
       0.4109031 -0.049713288 0.004482223 -0.39529812
000210 0a 22 86 3d 72 c0 98 3e 9a 9b 67 bc c9 65 4e 3d
       0.06549461 0.29834324 -0.014136219 0.05039004
000220 de 1a 97 3e 5b 76 b0 be c2 f8 4d be d3 99 03 3e
       0.29512686 -0.34465298 -0.20114425 0.12851648
000230 cf c7 0a be f0 ac 87 bd 1b 00 2e 3e 22 5c 52 be
       -0.13552783 -0.06624782 0.16992228 -0.20542958
000240 e5 df cb 3e 78 45 9b be f0 47 b5 3e 1d 34 6d 3d
       0.39819255 -0.30326438 0.35406446 0.057911027
000250 17 4f 38 bd ff 68 93 3d ff 99 7b 3e d9 81 1b 3e
       -0.0449973 0.07197761 0.24570464 0.15186252
000260 7a 0c a0 3d 58 f4 ca 3b db d9 8f bd 55 3d e7 bd
       0.0781488 0.006193679 -0.070239745 -0.11290995
000270 e4 73 50 3e 72 e7 5a 3e 55 72 6a be e7 ab a6 3e
       0.20356709 0.21377352 -0.22895177 0.32553026
000280 51 9d 45 3e 32 95 61 3e 52 0d 17 3d 04 42 ad be
       0.19298293 0.2202957 0.036877938 -0.33839428
000290 b2 9d 90 3d bd 8f bb 3d e1 54 94 bd 4b 8c 78 bd
       0.07061328 0.09158275 -0.07242752 -0.06068067
0002a0 20 b4 33 3e 89 11 0a 3c 2f 65 85 3d 65 bb 00 be
       0.17549181 0.008427032 0.0651344 -0.12571485
0002b0 e0 fd 0e be 6f 86 67 be 86 e5 26 be ee 4e b4 3d
       -0.13964033 -0.22609876 -0.16298494 0.08804117
0002c0 71 1f af 3c e7 22 bf 3d 95 e4 d9 bd 02 9e ea bc
       0.021377297 0.09332829 -0.10639302 -0.028639797
0002d0 e6 49 37 be 0a 92 30 3e c8 c9 db bd 78 0c 48 3b
       -0.17899284 0.1724321 -0.10731846 0.003052501
0002e0 99 54 dc 3c bd 31 ee bd f1 ae d7 3c 0e 71 09 be
       0.026895808 -0.116305806 0.026328536 -0.13422033
0002f0 d7 3c 36 3c 22 6b db bc 8f c7 22 3c fc ff 84 be
       0.011122904 -0.026784483 0.009935274 -0.2597655
000300 83 91 21 be bb 4d d4 bd de ae 04 be 0d a8 94 3e
       -0.15778165 -0.103663884 -0.12957332 0.29034463
000310 40 e8 0a 3e 9b e4 05 be 3c 6f 8d 3e b1 ef fb 3d
       0.13565159 -0.13075487 0.27623928 0.12301577
000320 f8 e8 23 3e 82 67 0a bd 61 e2 0a 3e 8d 20 8b 3e
       0.1600684 -0.03379012 0.13562919 0.27173272
000330 21 8b 66 39 4b 0b 51 3d 83 65 da 3a a4 ea 32 3e
       0.00021986339 0.05103616 0.0016662333 0.17472321
000340 67 bc dd 3c 0a 02 26 be 25 50 44 3e e9 03 79 3c
       0.027067376 -0.16211715 0.19171198 0.015198686
000350 a6 da e6 bd 72 62 9f bd b0 75 08 3d 4d 98 fb bd
       -0.11272173 -0.07782449 0.03331536 -0.122849084
000360 90 75 f4 be f1 65 96 3d 60 d6 8d be 7f a5 bd 3b
       -0.47745943 0.073436625 -0.27702618 0.005787551
000370 fe 71 a7 3d d7 80 2b 3e 44 a6 59 be 6d e5 d7 3d
       0.08176039 0.16748367 -0.21254832 0.10541806
000380 e3 d3 29 be c2 ec 43 be 91 07 5b 3e 65 48 28 be
       -0.16584735 -0.19133285 0.21389605 -0.16433866
000390 21 a2 0e 3e 67 20 69 3c c5 fd f7 bd 81 94 02 bd
       0.13929035 0.014228917 -0.121089496 -0.031879906
0003a0 05 b1 55 bd 3f 77 bb bd c8 28 0e 3d 98 49 42 be
       -0.052170772 -0.09153604 0.03470686 -0.18973386
0003b0 8b cc 0c be 85 41 cb 3d ba 15 1f 3e b9 5c 97 be
       -0.13749902 0.09924606 0.15535632 -0.2956293
0003c0 f3 61 7c 3e 12 ca d3 be c6 82 38 be 73 ba 86 3d
       0.2464674 -0.41365105 -0.18018636 0.06578531
0003d0 3d 3d 82 bd 53 f5 cf bd 52 fc 32 3d 48 64 d7 3d
       -0.063593365 -0.10154214 0.043697663 0.10517174
0003e0 ba fa be bd 3f be 8c bd 5e 97 ee 3d e8 91 93 3e
       -0.09325166 -0.06872224 0.11649965 0.28822255
0003f0 27 57 4b be fa 63 27 3b 4c 86 41 3d a6 a1 38 3e
       -0.19857465 0.0025541768 0.047247216 0.18030414

lstm.bias_ih_l0_reverse f4 [400]
000000 ca 08 8a 3d 7c 4e 75 3c d8 af 51 be 14 41 17 be
       0.06739958 0.014972325 -0.20477235 -0.14770919
000010 82 ef 0e be 40 e9 2a bd 59 f7 a5 3b d8 f3 6c 3d
       -0.13958552 -0.04172635 0.0050648865 0.057849735
000020 fa f3 05 be 5a b0 d1 3c 32 e5 61 be 90 ae af bd
       -0.13081351 0.025596786 -0.22060087 -0.08578217
000030 a2 7a 14 3d 58 34 9d 3d 9b 6f 2c 3d 6b b7 44 3d
       0.036249764 0.076759994 0.042098623 0.048026484
000040 ff 23 2f 3d 8f a8 91 bc 07 e2 11 be 73 9a bf 3d
       0.042758938 -0.01778057 -0.14246379 0.09355631
000050 e6 07 c2 3d 66 11 ba bd 66 5c 27 bd 93 82 17 3d
       0.09474163 -0.0908535 -0.040859602 0.03698976
000060 ba 75 02 3e e6 f1 ef bd 9f e9 a8 3c f1 45 bf 39
       0.12740222 -0.1171606 0.020619212 0.0003648247
000070 8c 3b 10 3e 6a 14 ec bd b6 82 98 3d 13 c2 c5 bd
       0.14085215 -0.11527331 0.07446806 -0.09656157
000080 e0 a8 28 3e 03 7f 2e be bd 75 ae bd de 51 c9 3d
       0.1647067 -0.17040639 -0.085185505 0.09830068
000090 18 cc a2 3b 20 e3 5f bd 6b e4 0c 3d ba 73 21 3e
       0.0049681775 -0.054659963 0.034397524 0.15766802
0000a0 12 a0 8f 3d d4 2c 10 3e d5 f4 37 3e 2e 13 65 3d
       0.07012953 0.140796 0.1796449 0.055926494
0000b0 6d 60 bf bc 4b 0a d8 bb 0e 8a 76 3d e9 5a 6c 3e
       -0.02336141 -0.006593024 0.060190253 0.23081554
0000c0 1e 18 36 39 78 91 40 3e a2 f5 3d 3c 98 52 d6 3d
       0.00017365857 0.18805492 0.011594208 0.10464972
0000d0 29 c1 ef bc 2f 6e 46 bd de 3b 33 bd 39 93 15 3e
       -0.02926691 -0.048444923 -0.043758266 0.14606942
0000e0 b9 9b 0b 3e ad ca b2 3d 62 81 3b 3e 4a 8b 85 bd
       0.13633622 0.087300636 0.18311074 -0.06520708
0000f0 3d 12 75 3e a6 1e d3 ba 25 db c5 bd 82 3b 20 be
       0.23932739 -0.0016107156 -0.09660939 -0.156477
000100 c3 fe 54 3e 99 92 5c 3a b4 fd 8b 3c 40 ae 68 bd
       0.20800309 0.0008414179 0.017088749 -0.056806803
000110 81 57 7a 3d f3 c3 ac 3d be 3f da 3d c4 27 f5 3b
       0.061118606 0.08435812 0.10656689 0.007481547
000120 42 16 01 3d 38 47 f3 3b 82 82 00 3e f4 dc 00 be
       0.031515367 0.0074242614 0.12549785 -0.12584287
000130 da 9d 18 bc 82 3b 2e bd 2b 67 22 bd 5a 9b 0e bd
       -0.0093149785 -0.04253722 -0.03964917 -0.034816124
000140 9c b6 9f 3d 34 54 8a bc 96 42 57 3d c6 19 06 3e
       0.07798502 -0.016885854 0.052553736 0.1309577
000150 ca 82 6d bd 64 30 dd bc 08 04 1f be 4a 17 77 bd
       -0.05798606 -0.027000614 -0.15528882 -0.060324945
000160 b7 86 99 3d 41 e3 3b 3e 12 b7 2b be e7 7c 05 be
       0.07496398 0.18348409 -0.16769055 -0.13035928
000170 77 ea 11 3d bf e4 49 bb e7 6e d4 bd 97 54 9b bc
       0.035623994 -0.003080651 -0.103727154 -0.018961234
000180 e9 4c 09 3e 18 e7 2e be 2c 3c b5 3c 80 33 76 bd
       0.13408245 -0.17080343 0.022123419 -0.060107708
000190 b6 54 76 3d 9f 51 da 3d e7 e8 29 bd 07 63 1d 3e
       0.06013938 0.10660099 -0.04148188 0.15369807
0001a0 17 58 94 bb 66 6f b9 bd d0 b2 6b be 06 14 c1 bd
       -0.0045271027 -0.09054451 -0.2301743 -0.09427647
0001b0 e3 e0 33 3c 90 0e d1 3c 91 02 28 be ba f2 8a bc
       0.01097891 0.02551964 -0.16407229 -0.016961444
0001c0 a6 01 08 3d 82 42 5d 3d 7a c4 1d be 2c ed 22 3e
       0.033204697 0.054018505 -0.15406981 0.15910786
0001d0 af e7 82 3c cb 17 d8 bd 4e 24 88 bd 32 62 04 be
       0.015979616 -0.10551413 -0.066475496 -0.12928084
0001e0 38 ba 17 be 8b cc 89 bd a5 e4 ba bd 41 e7 a8 bb
       -0.1481713 -0.067284666 -0.09125642 -0.0051545207
0001f0 cc ea 8f bd 3d b1 05 bd 78 a7 5d 3d 27 47 83 bd
       -0.07027206 -0.03263973 0.05411479 -0.064100556
000200 ef 40 9b 3c c9 67 b6 bc 0c 72 93 3d 3e 16 08 be
       0.018951861 -0.022266285 0.07199487 -0.13289735
000210 76 58 16 3e a6 3b 57 3d 9c 53 25 bd ec 4b 0d 3e
       0.14682183 0.05254712 -0.04036294 0.13798493
000220 4a 7e 29 bd 78 c0 c5 bc 32 d1 bf 3d ef 8e 35 3d
       -0.041380204 -0.024139628 0.09366073 0.044325765
000230 07 fa d3 bd 8c e5 95 bd 72 d2 20 be be 8a cc 3d
       -0.10350423 -0.07319173 -0.15705279 0.099874005
000240 ec 28 00 3d 5b 94 c4 3d a1 c8 e5 bd 79 22 26 be
       0.031289026 0.09598609 -0.112199076 -0.16224088
000250 33 2f d7 bd 2d 82 8f 3d c1 40 3a 3d 6d 85 51 3c
       -0.105070494 0.07007251 0.04547191 0.012788159
000260 5b 6a 55 bd 7b 11 1d 3d 8b 1b 2b bc 68 f3 86 3d
       -0.05210338 0.03834675 -0.0104435785 0.06589395
000270 ae 1f a6 3c 23 59 b5 bd 03 33 8c bd 8c 8d 1f bd
       0.020278778 -0.08854892 -0.06845667 -0.03895335
000280 9a df 1b 3c 86 a4 7c bd 90 18 03 3d 5d 2a 21 bd
       0.00951376 -0.06168034 0.032005847 -0.03934704
000290 ba 45 8e bc c8 fb 19 be 2f a0 2b 3c 5b 9b a7 bd
       -0.017367233 -0.15037453 0.010475202 -0.081839286
0002a0 e9 32 22 3c 4f ed d7 bd e2 d0 78 3d 43 ae 6d bc
       0.009899833 -0.1054331 0.06074608 -0.014506879
0002b0 6e dd 07 3d a9 fd c6 3a 2a 98 50 3d 4b df 2f be
       0.033170156 0.0015181798 0.050926365 -0.17175023
0002c0 14 c9 6c 3d dc b4 9b 3d 28 67 8b 3c a3 37 88 3d
       0.05780895 0.076028556 0.017016962 0.06651237
0002d0 59 75 82 bc 3c b3 bb bd 07 a6 78 be 74 ee b0 3d
       -0.015925096 -0.091650456 -0.24282084 0.08639231
0002e0 1b 10 eb bd b1 ab 6a bd 54 c3 42 bc b9 14 e4 bc
       -0.11477681 -0.057292644 -0.01188739 -0.027841913
0002f0 9b 77 19 bc 0b 99 ff bc 22 56 32 be 5a de 90 bd
       -0.009366895 -0.031200906 -0.1741567 -0.0707366
000300 97 8f 31 bd 01 10 a5 3d 45 9d 55 bd ba f7 1d bd
       -0.04334983 0.08059693 -0.052151937 -0.03856633
000310 d5 06 96 be 66 0d c2 bd d4 77 6c 3d 99 3e d6 bc
       -0.29302087 -0.09475212 0.057731465 -0.026152896
000320 f0 4d df 3a 4f 9a ee bd d1 e5 1c 3c db 75 c4 3d
       0.0017036777 -0.11650526 0.009576277 0.09592792
000330 69 ee ea bd 25 63 83 3d 2a 3c d2 3c 8c 66 98 bc
       -0.114712544 0.06415395 0.025663454 -0.018603586
000340 e6 c5 e6 bd bd 9a 99 3b f7 f8 a6 bd 4b 16 b9 3d
       -0.11268215 0.0046876357 -0.08152955 0.09037455
000350 d8 76 4e 3d f4 8a 11 be e1 9f f9 bc b6 48 b0 bc
       0.050406307 -0.14213163 -0.030471744 -0.021519046
000360 42 0d 4b 3d 7d 11 39 bd bd aa 1f 3b 3c 9c 2f 3c
       0.04957319 -0.045182694 0.0024363243 0.0107184015
000370 f9 bc 24 3d 2d e8 1f bd c3 23 c7 3d aa cf 94 bd
       0.04021928 -0.03903978 0.09723618 -0.07266171
000380 96 95 e2 3c 20 80 6f 3d 36 f0 1b 3e 1c b6 64 3d
       0.027659219 0.0584718 0.15228352 0.055837736
000390 93 44 e9 3d 43 a6 76 3d 35 94 1d 3e 1a 1e 11 bc
       0.113900326 0.060217153 0.15388568 -0.008857274
0003a0 82 f1 14 3e 15 a0 06 bc dc e2 0f 3d b7 e3 58 3d
       0.14545253 -0.0082168775 0.03512846 0.05295154
0003b0 ee 2d 24 3e 51 fb f5 bd f3 63 a1 bd a4 c3 2c 3d
       0.16033146 -0.120108254 -0.07880392 0.042178765
0003c0 b1 14 3e 3c 6d 8f 8c 3d c4 f6 86 3d 28 d0 68 bd
       0.011601613 0.06863294 0.065900356 -0.05683914
0003d0 21 56 e7 3d 3e d2 93 3d 55 e1 8b bc 9b 5c 16 3d
       0.11295725 0.07217835 -0.01707522 0.03670941
0003e0 78 fb 13 3d 75 d6 e8 3b 79 c9 9c bb 09 3d 46 bd
       0.03612849 0.0071056434 -0.0047847596 -0.04839805
0003f0 d2 d0 3f 3b 11 61 7e 3d 78 10 a8 3d 9d 5c 22 3d
       0.0029268754 0.06210429 0.08206266 0.039639104
